torchCNN/cifar_net.pth (torch, 250887 bytes, 10 tensors)

conv1.weight f4 [6, 3, 5, 5]
0	0x3e07d171	0.1326349
1	0xbe8aae3d	-0.27086058
2	0xbe3f9c11	-0.18711878
3	0x3e8dd185	0.27698913
4	0x3d989c05	0.07451633
5	0x3d606220	0.05478108
6	0xbf10d40d	-0.56573564
7	0xbe40c825	-0.18826349
8	0x3f08e3f3	0.5347282
9	0x3db5323f	0.08847474
10	0x3d865746	0.06559615
11	0xbf2b9a2b	-0.67032117
12	0xbeb16409	-0.34646633
13	0x3ed54e8c	0.4166149
14	0x3eb0e5b9	0.34550264
15	0x3d9088bd	0.07057331
16	0xbea4d8b6	-0.32196587
17	0xbe09a542	-0.13441947
18	0x3e71ed4d	0.2362568
19	0x3df09a1e	0.117481455
20	0x3e245a60	0.160501
21	0x3dd1418d	0.10217581
22	0xbcc020d5	-0.023453156
23	0x3d898689	0.06715114
24	0xbdecc438	-0.11560863
25	0x3e197c46	0.14988813
26	0xbe97b2df	-0.29628655
27	0xbe259e0a	-0.16173568
28	0x3e6c3cf0	0.23070121
29	0x3e0cfbbe	0.13767907
30	0x3e5b0c47	0.21391402
31	0xbf315bf0	-0.6928091
32	0xbe6feac0	-0.23429394
33	0x3f0f75dc	0.56039214
34	0x3e3318b9	0.174899
35	0x3db55dac	0.08855757
36	0xbf2b469c	-0.66904616
37	0xbedd1e25	-0.4318706
38	0x3ef654d4	0.48111594
39	0x3e637749	0.22213472
40	0x3e4b78c6	0.1987029
41	0xbee17f8b	-0.4404262
42	0xbea64419	-0.3247383
43	0x3e0f26b9	0.13979615
44	0x3dbd117a	0.09231849
45	0x3d4f5156	0.050614677
46	0xbe27c346	-0.16383085
47	0xbe94509d	-0.28967753
48	0x3decea60	0.11568141
49	0xbe805fc9	-0.25073078
50	0xbcb87f5a	-0.022521663
51	0xbe9a7ffd	-0.30175772
52	0xbdcb47dd	-0.09925816
53	0x3e86b775	0.26311842
54	0xbd6d7711	-0.05797488
55	0x3d815854	0.063156754
56	0xbf279f34	-0.654773
57	0xbe6f5f9b	-0.23376314
58	0x3f149273	0.58035964
59	0x3db6bfc9	0.08923299
60	0x3e80e2ff	0.25173184
61	0xbf0ae421	-0.5425435
62	0xbebe9a8a	-0.3722728
63	0x3f16caae	0.58903015
64	0x3e975e2f	0.29564044
65	0x3e44ece2	0.19230989
66	0xbeb7e3ff	-0.35916135
67	0xbeaafbf0	-0.33395338
68	0x3e8f832a	0.28029758
69	0x3e1fb6bc	0.15597051
70	0x3e33cead	0.1755931
71	0x3db5d552	0.08878578
72	0xbcc4705e	-0.023979362
73	0x3d9ec4ce	0.07752381
74	0xbb135787	-0.002248259
75	0x3e200996	0.15628657
76	0x3e0ef6f6	0.13961396
77	0x3e20d5ef	0.15706609
78	0x3e3b680c	0.1830141
79	0x3e97b4ad	0.29630032
80	0x3e92cb21	0.286706
81	0x3e000e33	0.12505417
82	0x3e90d7bc	0.28289592
83	0x3e14c12b	0.14526813
84	0x3e88aa8a	0.2669261
85	0x3e9289d3	0.28620777
86	0x3e6b7156	0.22992453
87	0x3eb84c60	0.3599577
88	0x3ec7293b	0.38898644
89	0xbd48e125	-0.04904284
90	0xbc10f48a	-0.008847365
91	0xbd89eb82	-0.06734373
92	0x3ec7cf4d	0.39025345
93	0x3ea9e1fe	0.3318023
94	0xbe874681	-0.26420978
95	0x3bea82c3	0.0071567013
96	0xbe9dea57	-0.3084285
97	0x3e94d4ca	0.29068595
98	0xbd2a4d39	-0.04157755
99	0xbf291764	-0.66051316
100	0xbe06b8c1	-0.13156416
101	0xbe0a83fd	-0.13526912
102	0xbe53f5d2	-0.20699242
103	0xbf0b7eef	-0.5449056
104	0xbeaa4307	-0.33254263
105	0xbcd688b2	-0.026188228
106	0xbe47ea22	-0.19522908
107	0xbe2e7687	-0.17037402
108	0xbea98fc6	-0.33117503
109	0xbf107630	-0.5643034
110	0x3b5449b8	0.0032392573
111	0xbe8fc6e9	-0.28081444
112	0xbd863d66	-0.065546796
113	0xbdd7a0f3	-0.105287455
114	0xbf2a15ca	-0.664395
115	0x3e853554	0.2601725
116	0xbe5c2eaa	-0.21502176
117	0x3e34d236	0.17658314
118	0xbde2a695	-0.11066929
119	0xbf2857ac	-0.65758777
120	0x3e862a67	0.26204225
121	0xbe463b5c	-0.19358581
122	0x3ee9f322	0.45693308
123	0x3e33865f	0.17531727
124	0xbefbc718	-0.49175334
125	0x3e30843a	0.1723794
126	0x3df35260	0.11880946
127	0x3e1112ce	0.1416733
128	0x3db6bf4d	0.089232065
129	0x3e1e10b0	0.15436053
130	0x3d42f742	0.047599085
131	0xbd19d4ca	-0.037556447
132	0xbbe1f251	-0.0068953414
133	0xbda4d4e1	-0.08048416
134	0x3d580623	0.052740227
135	0x3cd16c41	0.025564315
136	0xbe2b4158	-0.16724145
137	0x3d9b1d13	0.07573905
138	0xbcf84c5e	-0.030309852
139	0xbe912140	-0.2834568
140	0x3d658d51	0.056042973
141	0xbe8f7213	-0.2801672
142	0x3e8f55e0	0.27995205
143	0x3e95f9e3	0.2929221
144	0xbea259e2	-0.317092
145	0x3e0c8718	0.13723409
146	0xbe676267	-0.22596131
147	0x3efcc9b8	0.4937265
148	0x3e9c5861	0.30536178
149	0xbeb87788	-0.36028695
150	0x3e8ecacd	0.278891
151	0xbbe029d6	-0.0068409247
152	0xbe10f6c8	-0.1415664
153	0x3eabef4a	0.33581
154	0x3eb1b7fa	0.34710675
155	0x3eb56858	0.3543117
156	0x3f1522c2	0.5825616
157	0x3e933311	0.28749898
158	0x3eb7a673	0.35869178
159	0x3dd17b34	0.10228577
160	0xbd8cc3f9	-0.06873316
161	0x3ea8620d	0.32887307
162	0x3f36658c	0.712487
163	0x3ecea411	0.40359548
164	0xbd3a6a79	-0.045511696
165	0xbe691d1a	-0.22765008
166	0xbea96095	-0.330815
167	0xbe889834	-0.26678622
168	0xbe2c23f4	-0.1681059
169	0xbe713190	-0.23554063
170	0xbe6c5759	-0.23080195
171	0xbf00677c	-0.50157905
172	0xbf3771d5	-0.7165807
173	0xbefa987c	-0.4894446
174	0xbdca8b8b	-0.09889897
175	0x3ceb7a72	0.02874491
176	0xbecd3522	-0.400796
177	0xbe943f32	-0.28954464
178	0xbb169eb1	-0.002298277
179	0x3d8ef815	0.06980912
180	0x3e1c13c6	0.15241918
181	0x3e9274df	0.2860479
182	0x3e12a4bb	0.14320652
183	0x3e73dbcc	0.23814315
184	0xbdcad59b	-0.09904023
185	0x3ceb4788	0.028720632
186	0x3ee16693	0.4402357
187	0x3f21e22f	0.63235754
188	0x3ecd7fbb	0.40136513
189	0xbbc4ec7d	-0.006009637
190	0xbca17a27	-0.019711567
191	0xbe1aea93	-0.15128545
192	0xbe851685	-0.25993744
193	0xbddff1fb	-0.10934826
194	0xbe86db06	-0.26338977
195	0x3c682e3a	0.0141711775
196	0xbef3b098	-0.47595668
197	0xbf1b6ff9	-0.6071773
198	0xbf07c8a2	-0.53040516
199	0x3b97513d	0.0046178387
200	0xbe805401	-0.2506409
201	0xbf056447	-0.52106136
202	0xbef61b94	-0.48067915
203	0xbe28b466	-0.16475067
204	0xbdb5a61d	-0.08869574
205	0xbdd288fa	-0.102800325
206	0x3d85bc72	0.06530084
207	0xbe058572	-0.13039187
208	0xbe641454	-0.2227338
209	0xbe01202f	-0.12609933
210	0x3de9906a	0.11404498
211	0x3e8e750b	0.27823672
212	0x3eb7a24d	0.35866013
213	0x3ec97a35	0.3935105
214	0xbd85533a	-0.06510015
215	0x3d876cf3	0.06612577
216	0x3dcde728	0.10053855
217	0x3e1c265d	0.1524901
218	0x3e2d1051	0.16900755
219	0x3e3e1b8d	0.18565197
220	0x3ebd2fac	0.36950433
221	0x3c0762ef	0.008263334
222	0x3a548ef3	0.00081084593
223	0x3d208cfd	0.039196957
224	0x3ecf1195	0.40443102
225	0x3e7117a8	0.2354418
226	0xbd6074d3	-0.054798912
227	0x3d4766bf	0.04868197
228	0xbc91e91e	-0.017811354
229	0x3e1198e1	0.14218475
230	0x3d8504d3	0.06495061
231	0x3e0b5a73	0.13608722
232	0x3d53a6b2	0.051672645
233	0xbdcc0a28	-0.09962875
234	0xbde9d2d0	-0.114171624
235	0x3d949a1a	0.07255955
236	0xbc94a632	-0.018145654
237	0x3e14cee6	0.1453205
238	0xbbd1a161	-0.0063974117
239	0xbdb44578	-0.088023126
240	0x3cb9d0b5	0.022682527
241	0x3d480e2c	0.04884164
242	0x3d8252c9	0.06363446
243	0x3c605d33	0.013694095
244	0x3d4f17ec	0.050559923
245	0xbe60f749	-0.21969332
246	0x3cc92b87	0.024556888
247	0xbbffd502	-0.007807375
248	0xbd7769b8	-0.060403556
249	0xbd01a385	-0.031650085
250	0xbe102cda	-0.1407961
251	0xbe4ba818	-0.19888341
252	0xbe83baac	-0.25728357
253	0xbe76ce79	-0.241022
254	0xbdf5b6d3	-0.119977616
255	0x3cd3d2d5	0.025857368

conv1.bias f4 [6]
0	0xbea60cdf	-0.32431695
1	0xbeb96e05	-0.3621675
2	0xbf039f64	-0.51415086
3	0x3ed0505a	0.40686303
4	0xbe064c02	-0.13114932
5	0xbcf956a7	-0.030436827

conv2.weight f4 [16, 6, 5, 5]
0	0xbe1a1e13	-0.15050535
1	0x3cd0bca8	0.025480583
2	0xbc079490	-0.008275166
3	0x3bf27469	0.007399131
4	0xbeb19cd4	-0.34689963
5	0x3e1f6357	0.15565239
6	0xbd80f8b0	-0.062974334
7	0x3b28d851	0.00257637
8	0xbe24edd7	-0.16106354
9	0xbe27461f	-0.16335343
10	0x3e7d0475	0.24708731
11	0x3e26f8a6	0.1630579
12	0xbe060166	-0.13086471
13	0xbe83ff90	-0.25780916
14	0xbcf03d0a	-0.02932598
15	0x3d88b516	0.066751644
16	0x3e425fe4	0.18981892
17	0xbea87e14	-0.3290869
18	0xbe353046	-0.17694196
19	0x3e5451e4	0.20734364
20	0xbe9e4bf4	-0.30917323
21	0xbe8679d3	-0.2626482
22	0xbe1f8487	-0.15577899
23	0x3e8c888d	0.2744793
24	0x3eb3f2a5	0.3514606
25	0x3d4ed8ff	0.050499912
26	0xbd8b60d8	-0.06805581
27	0xbe077141	-0.13226797
28	0x3d301535	0.042988975
29	0x3dd0d19f	0.10196232
30	0xbd0b62b2	-0.03402967
31	0xbcd4a520	-0.025957644
32	0x3b1fd86b	0.002439047
33	0x3dff97ed	0.124801494
34	0x3cab061d	0.020876938
35	0x3c1448a7	0.009050525
36	0xbc30fcbe	-0.010802446
37	0x3d27f196	0.04100188
38	0x3d9a2803	0.07527163
39	0x3cf18ed9	0.02948706
40	0x3e0a1f40	0.13488483
41	0x3de84bae	0.1134256
42	0x3d03cb2b	0.032176178
43	0x3cd8c278	0.026459917
44	0x3d4a86c2	0.04944492
45	0x3dd76b34	0.10518494
46	0x3e1a91af	0.15094636
47	0xbdc85db0	-0.097834945
48	0xbdb0d118	-0.086336315
49	0xbd4529f4	-0.048135713
50	0x39d659b8	0.00040884106
51	0xbd818540	-0.063242435
52	0xbdb45921	-0.088060625
53	0xbe0cfa37	-0.13767324
54	0x3e04b394	0.12959129
55	0x3def3165	0.11679343
56	0xbdfa83f3	-0.122321986
57	0xbe30e0e2	-0.17273286
58	0x3d2ae7f5	0.041725118
59	0x3e23b4e8	0.15986979
60	0x3d24192c	0.04006307
61	0xbd77bcd9	-0.060482834
62	0x3e0af2fb	0.13569252
63	0x3de17cd9	0.11010141
64	0xbe8ec7ea	-0.27886897
65	0x3d926909	0.0714894
66	0x3e4d7ad6	0.2006639
67	0x3e7779b6	0.24167523
68	0xbe3607f3	-0.1777647
69	0xbe95c29c	-0.29250038
70	0x3e36cffb	0.17852776
71	0x3d18209d	0.037140477
72	0x3e865244	0.2623464
73	0xbb7ca6f2	-0.0038551656
74	0xbe12b748	-0.14327729
75	0xbcf06535	-0.029345134
76	0xbdd03890	-0.101670384
77	0xbd3ce5e0	-0.046117663
78	0xbe32b0c5	-0.17450245
79	0xbe27e575	-0.16396125
80	0xbdea5bcc	-0.1144329
81	0xbbf401b4	-0.007446492
82	0x3d85585e	0.06510995
83	0xbd67ca81	-0.056589607
84	0xbe01d128	-0.12677443
85	0xbe4bced6	-0.1990312
86	0xbd8f77a4	-0.070052415
87	0xbe0328db	-0.12808554
88	0xbe1c2d8e	-0.15251753
89	0xbe75afd6	-0.23992857
90	0xbd3de927	-0.04636493
91	0xbd9542a8	-0.07288104
92	0xbdeeabab	-0.11653837
93	0xbe3aa039	-0.18225183
94	0xbea06edd	-0.31334582
95	0x3e15789c	0.1459679
96	0x3d94b85a	0.07261725
97	0xbe102b2c	-0.14078969
98	0xbe82fecf	-0.2558503
99	0xbe909947	-0.2824194
100	0xbdc49f7f	-0.09600734
101	0xbe17d97f	-0.14829062
102	0x3cfb7845	0.030696997
103	0xbca2ecc8	-0.019888297
104	0xbdd8c72c	-0.10584864
105	0xbe80819d	-0.25098887
106	0xbdaca11f	-0.08429169
107	0xbb8b541d	-0.0042519704
108	0xbd312709	-0.043250117
109	0x3e28efdd	0.1649775
110	0xbea5d490	-0.32388735
111	0xbe67f797	-0.22653042
112	0xbdcdd5c9	-0.10050542
113	0xbe1bf465	-0.15229948
114	0x3f1b5f56	0.60692346
115	0xbe4f092f	-0.20218347
116	0xbeb0dc32	-0.34542996
117	0xbe4c065e	-0.19924304
118	0x3e9ec68f	0.31010863
119	0x3ef5efd6	0.48034543
120	0x3cb5af38	0.022178277
121	0xbcd37e96	-0.025817197
122	0x3df3335a	0.11875029
123	0x3e44bc1f	0.19212388
124	0x3db43d48	0.08800751
125	0x3c5fffdd	0.013671842
126	0x3d9084d7	0.07056587
127	0x3d96e2e6	0.07367496
128	0xbc77c192	-0.015121834
129	0xbd872112	-0.065981045
130	0x3d0e9ab9	0.034815524
131	0x3d6b754e	0.057484917
132	0x3d92a32b	0.07160028
133	0x3d96493a	0.073381856
134	0x3e21be22	0.15795186
135	0x3bd1a67d	0.006398021
136	0x3e65f9fa	0.2245864
137	0x3db67727	0.08909445
138	0x3bc44547	0.005989704
139	0xbdc87ff9	-0.09790034
140	0x3a8de5e4	0.0010825959
141	0x3eb12c8c	0.346043
142	0x3e847fae	0.25878662
143	0xbdf71544	-0.12064603
144	0xbdb5d436	-0.08878367
145	0xbe2392b6	-0.15973935
146	0x3c47f4ae	0.012204332
147	0x3dd501b0	0.104007125
148	0x3d8161d5	0.06317488
149	0x3dfd4cab	0.12368139
150	0xbdaccdca	-0.08437689
151	0xbac3fa6b	-0.001495195
152	0x3d0036bf	0.03130221
153	0x3d355d73	0.044278573
154	0xbcc4bec0	-0.024016738
155	0x3dd6a607	0.10480886
156	0x3e9640e5	0.29346386
157	0x3e0986da	0.13430348
158	0xbe03c76a	-0.12869039
159	0xbe05fe7d	-0.13085361
160	0x3e1517b3	0.14559822
161	0x3e7e178f	0.24813674
162	0xbc2a37e7	-0.010389305
163	0xbd425f78	-0.047454327
164	0xbe189281	-0.14899637
165	0x3df51371	0.11966599
166	0x3db8bdf9	0.090206094
167	0x3c8cda4f	0.017193941
168	0xbd637fb7	-0.05554172
169	0xbe2924bb	-0.16517918
170	0x3ddcaba5	0.10774926
171	0x3dbe82a5	0.09302262
172	0x3d8a8fe1	0.06765724
173	0x3d028d1d	0.031872857
174	0xbdc45d5d	-0.0958812
175	0x3cf4df20	0.02989155
176	0xbe0505e6	-0.12990531
177	0xbda8dfc3	-0.08245804
178	0x3c6d0c1d	0.01446822
179	0x3dc5bcec	0.096551746
180	0xbd619f1e	-0.055083387
181	0xbe3d833c	-0.18507093
182	0xbdc4e8e4	-0.09614733
183	0x3e1fe794	0.15615684
184	0x3d82891e	0.06373809
185	0xbe67ba45	-0.2262965
186	0xbe138adc	-0.1440844
187	0xbc65d9a3	-0.014028939
188	0x3e81b8ae	0.25336212
189	0xbc1a07db	-0.009401287
190	0xbe665775	-0.224943
191	0xbd80f143	-0.06296017
192	0x3d79f1b1	0.06102151
193	0x3e9bf158	0.30457568
194	0x3c61f65e	0.013791649
195	0xbe499dfe	-0.19689175
196	0xbddd8569	-0.108164616
197	0x3dc518f7	0.09623902
198	0x3e5bcfe9	0.2146603
199	0x3d3397c8	0.04384592
200	0xbd28394e	-0.041070275
201	0xbdd25a5c	-0.10271141
202	0xbd3c51f1	-0.045976583
203	0xbdd924cd	-0.10602722
204	0xbe0430c1	-0.12909223
205	0xbdfa484b	-0.1222082
206	0xbe046766	-0.12930068
207	0xbd302992	-0.043008395
208	0x3cf4cb5a	0.029882122
209	0xbd6cdbf2	-0.057826944
210	0xbd9c64fe	-0.0763645
211	0xbe318730	-0.17336726
212	0xbe94f7e6	-0.29095381
213	0xbe11bd34	-0.14232332
214	0x3b121a45	0.002229349
215	0xbe84a57e	-0.2590751
216	0xbe5c8cef	-0.21538137
217	0xbe75adf7	-0.23992144
218	0xbe9eed45	-0.31040397
219	0xbe82626d	-0.25465718
220	0xbe3b26e8	-0.1827656
221	0xbe14394f	-0.14474986
222	0xbdcca62d	-0.09992633
223	0xbe3782cf	-0.17920993
224	0xbe3427fa	-0.17593375
225	0xbe268f2f	-0.16265558
226	0xbdf24116	-0.118288204
227	0xbc90d93c	-0.01768171
228	0x3e09cef0	0.13457847
229	0x3dfebc69	0.1243828
230	0xbe1d0324	-0.1533323
231	0xbea008ea	-0.312568
232	0xbde1d6e8	-0.11027318
233	0x3d82c477	0.06385129
234	0x3dff08d3	0.12452855
235	0xbe385cbb	-0.18004124
236	0xbe70fb18	-0.23533285
237	0xbd11e950	-0.035622895
238	0x3e87df1b	0.26537403
239	0x3d989b3b	0.07451483
240	0xbe692d83	-0.22771268
241	0xbdb691ce	-0.08914529
242	0x3e2de064	0.1698013
243	0x3e896134	0.26831973
244	0x3d328d28	0.04359165
245	0xbd473f02	-0.048644073
246	0xbd2967ed	-0.041358877
247	0x3e6db05c	0.23211807
248	0x3eb2a505	0.34891525
249	0x3d53b469	0.051685724
250	0xbdd480d9	-0.10376138
251	0x3ddff408	0.10935217
252	0x3ec48832	0.3838516
253	0x3e388852	0.18020752
254	0xbe811a2c	-0.2521528
255	0x3db28c3f	0.08718156

conv2.bias f4 [16]
0	0xbea0343c	-0.31289852
1	0x3e8507b1	0.2598243
2	0xbe47d6c5	-0.19515522
3	0x3df9d2d4	0.121984154
4	0x3e89e9d6	0.26936215
5	0x3fb1b72f	1.3884028
6	0x3e9fabf1	0.31185868
7	0xbea36103	-0.31909952
8	0xbf3676c4	-0.7127497
9	0xbe40dc4c	-0.18834037
10	0xbef71c87	-0.48263952
11	0x3fcdbac4	1.6072621
12	0x3e30fee8	0.17284739
13	0xbee2bdd5	-0.44285455
14	0xbee65738	-0.44988418
15	0xbea1c2b8	-0.3159387

fc1.weight f4 [120, 400]
0	0xbc394366	-0.011307573
1	0x3d0cb492	0.034351893
2	0xbd80b171	-0.06283844
3	0xbc7fd6c0	-0.015615165
4	0x3cca180c	0.02466967
5	0xbbd66d64	-0.006543802
6	0x3a981ff8	0.0011606207
7	0xbb6febe5	-0.003660911
8	0xbd3da254	-0.046297386
9	0xbd00f38b	-0.03148226
10	0xbcbb31b8	-0.022850856
11	0xbd3522f3	-0.044222783
12	0xbdd21f43	-0.10259869
13	0xbdba10dd	-0.09085248
14	0x3c11394b	0.008863757
15	0x3d17e6c6	0.037085317
16	0x3b50b874	0.0031848224
17	0x3c637a0a	0.013884077
18	0x3be23b5e	0.00690405
19	0xbd62ed03	-0.055401813
20	0x3dca2ca6	0.09871797
21	0x3c407b02	0.011748077
22	0x3dac35aa	0.08408673
23	0x3c699cdf	0.014258592
24	0x3cd938de	0.026516374
25	0x3d6d5d09	0.057950053
26	0x3d50e116	0.05099591
27	0x3cbd96c7	0.023143185
28	0xbcd3d1b1	-0.025856825
29	0x3e14e8d3	0.1454194
30	0x3dfe4a89	0.1241656
31	0x3d8bdf9c	0.068297595
32	0x3d900129	0.07031471
33	0xbc7d536d	-0.015461785
34	0xbd849e50	-0.06475508
35	0x3de138ed	0.10997186
36	0x3d97739c	0.073950976
37	0x3d1706df	0.036871787
38	0xbc296da8	-0.0103410855
39	0x3d5e406e	0.054260664
40	0x3d04fcd0	0.032467663
41	0x3c03e6e9	0.008050659
42	0xbcef3e3b	-0.029204478
43	0xbd10c021	-0.03533948
44	0x3c9fee5e	0.019522842
45	0x3df5005c	0.11962959
46	0xbd82e062	-0.06390454
47	0xbd998f45	-0.074980296
48	0xbda4a60a	-0.08039482
49	0xbd8cdd25	-0.068781175
50	0x3d1b266f	0.03787845
51	0x3d3b57ae	0.045737915
52	0x3dbed5d7	0.093181305
53	0x3d160625	0.036626954
54	0x3e0da54c	0.13832587
55	0x3d8be88e	0.06831466
56	0xbda0377e	-0.07823084
57	0xbd3d310d	-0.046189357
58	0x3c1b21fe	0.009468554
59	0x3d0a181e	0.033714406
60	0x3a3546ab	0.00069151324
61	0xbda40f6e	-0.080107555
62	0x3cb915d2	0.022593413
63	0x3c81d7d4	0.015849985
64	0xbd67fdcb	-0.05663852
65	0xbd3d208e	-0.046173625
66	0xbdb431e6	-0.0879858
67	0x3abc5631	0.0014368949
68	0x3c0b2b69	0.0084942365
69	0xbd15d060	-0.036575675
70	0xbc0eeb5f	-0.008723109
71	0xbcbe3008	-0.023216262
72	0x3da4bc9a	0.080437854
73	0xbd238822	-0.03992475
74	0xbdd494bb	-0.103799306
75	0x3d80445e	0.0626304
76	0x3cf2c4ec	0.029634915
77	0xbc38eced	-0.011286956
78	0xbd09d871	-0.03365368
79	0x3d749f63	0.059722316
80	0xbc558b94	-0.013033766
81	0x3b8cc34b	0.0042957417
82	0x3cb69ce0	0.0222916
83	0x3d532228	0.051546246
84	0x3d5e908f	0.05433708
85	0x3cb9d1f4	0.022683121
86	0xbc475ab7	-0.012167624
87	0xbbd2a6eb	-0.0064285896
88	0x39fd7b6c	0.00048347877
89	0x3dfa9eaf	0.12237298
90	0xbd04a107	-0.03238013
91	0xbd3234a9	-0.043507252
92	0x3cdc940f	0.026926069
93	0xbd046e96	-0.032332025
94	0x3d67928e	0.05653625
95	0xbdc88d8e	-0.097926244
96	0xbd7e57ec	-0.062095568
97	0xbca7c0ae	-0.020477619
98	0x3c3481f4	0.011017311
99	0x3dad35d9	0.08457536
100	0x3dd1bc52	0.102409974
101	0xbc10f9a6	-0.008848583
102	0xbd92e915	-0.07173363
103	0x3da269eb	0.079303585
104	0xbd093068	-0.03349343
105	0xbd142455	-0.03616746
106	0xbd4eff9c	-0.050536737
107	0xbcc5fb94	-0.024167813
108	0x3d096d19	0.03355131
109	0x3daac0a5	0.08337525
110	0xbd342c28	-0.043987423
111	0xbccab822	-0.024746004
112	0x3d011540	0.031514406
113	0x3dd7f1ce	0.105441675
114	0x3dc22933	0.094805144
115	0xbd1ef313	-0.038806032
116	0x3d3578d8	0.0443047
117	0x3c3244e8	0.010880686
118	0x3e06a202	0.13147739
119	0x3d84fad0	0.06493151
120	0xbcbffb12	-0.02343515
121	0x3c493139	0.012279802
122	0x3ba0b1c3	0.0049040033
123	0x3d1b2ec6	0.037886404
124	0x3e00e05b	0.12585585
125	0xbcc7e3de	-0.024400648
126	0x3db37300	0.08762169
127	0x3d9d6095	0.07684437
128	0x3db731ad	0.08945022
129	0x3d9bf8f6	0.07615845
130	0xbbe68656	-0.007035057
131	0xbad11423	-0.0015951436
132	0x3d5d912a	0.054093517
133	0x3de8adf2	0.113613024
134	0x3d91a444	0.07111409
135	0xbd7d5646	-0.061849855
136	0xbd7f55aa	-0.062337555
137	0x3ded1aa7	0.11577349
138	0x3d8d68c8	0.06904751
139	0x3d21b697	0.039480772
140	0xbdc00165	-0.09375266
141	0xbcf18b15	-0.029485265
142	0x39f26cbf	0.0004623886
143	0xbbf2156b	-0.007387807
144	0x3d95cea1	0.07314802
145	0xbe13408f	-0.14380096
146	0xbe017c1d	-0.12645002
147	0xbd0df21d	-0.034654725
148	0xbd39a05d	-0.04531895
149	0x3d9194d0	0.07108462
150	0x398ffe13	0.00027464385
151	0x3c43b0c9	0.011944004
152	0xbce841b3	-0.02835164
153	0xbc316d66	-0.010829305
154	0xbd807ce0	-0.06273818
155	0xbc1de0dc	-0.00963613
156	0x3a9d8d77	0.0012020309
157	0x3d005708	0.031333
158	0x3d219ae8	0.03945437
159	0x3b58271a	0.003298229
160	0x3dc77b85	0.09740356
161	0xbbdf05c6	-0.006806108
162	0x3c800bac	0.015630566
163	0xbc8ce9e1	-0.017201366
164	0xbd96d25e	-0.07364343
165	0x3d6f6433	0.058445167
166	0x3d09e4b4	0.033665374
167	0x3c8a1dc0	0.016859889
168	0xbcb4e398	-0.022081181
169	0xbd9711b3	-0.07376423
170	0x3dbc2950	0.09187567
171	0x3de871b4	0.11349812
172	0x3d993129	0.0748008
173	0x3d39d6e8	0.045370966
174	0xbcfd6f1a	-0.030936766
175	0x3c84afb8	0.01619707
176	0x3d668b2e	0.056285076
177	0xbca912bb	-0.020638814
178	0x3c82ffe9	0.015991168
179	0x3d3a6bb7	0.04551288
180	0xbccd004f	-0.025024561
181	0xbc1041a4	-0.008804712
182	0x3b856fd5	0.0040721693
183	0xbc607360	-0.013699383
184	0xbc919456	-0.017770927
185	0xbcbca782	-0.023029093
186	0xbd95d3d4	-0.07315794
187	0xbdedafdd	-0.11605809
188	0xbd9ea79c	-0.07746813
189	0xbc935962	-0.017986957
190	0xbd989450	-0.07450163
191	0x3ab313d7	0.0013662529
192	0x3cb9db64	0.022687621
193	0xbdb2a376	-0.08722584
194	0xbd7fb0f9	-0.062424634
195	0xbc1a2134	-0.00940733
196	0x3db616c1	0.08891059
197	0x3d0856f6	0.033286057
198	0xbd129f87	-0.03579667
199	0xbbf2a384	-0.0074047465
200	0x3c87dcd2	0.016584788
201	0xbd226dc4	-0.039655462
202	0xbcfe881b	-0.03107076
203	0xbd467775	-0.048453767
204	0x3d21628c	0.039400622
205	0xbc409e0a	-0.011756429
206	0x3d0c433e	0.034243815
207	0xbc11241a	-0.008858705
208	0x3d285550	0.041096985
209	0x3c003a90	0.007826462
210	0x3ce99800	0.028514862
211	0xbd636aee	-0.055521898
212	0xbd156129	-0.036469612
213	0xbce1386e	-0.027492728
214	0xbbff7975	-0.007796461
215	0xbd867dce	-0.06566964
216	0xbc1c14bf	-0.009526431
217	0x3d1c7b32	0.038203426
218	0x3ca02af6	0.019551735
219	0x3bdc4e06	0.0067231683
220	0xbd1c5fb6	-0.038177215
221	0xbc436caf	-0.011927768
222	0x3af17182	0.0018420669
223	0xbb09a248	-0.0021001268
224	0x3c82aaf4	0.015950657
225	0x3da2d06c	0.079499096
226	0xbcd5e0f9	-0.026108252
227	0x3c4e204b	0.012580941
228	0x3aa85999	0.0012844085
229	0x3d13f1e7	0.036119368
230	0x3b6bcc53	0.003597994
231	0x3bac0a2a	0.005250235
232	0xbbd5687f	-0.006512701
233	0xbd0c3d94	-0.034238413
234	0x3b2930fa	0.0025816546
235	0xbd6f9408	-0.058490783
236	0x3c891ee4	0.016738363
237	0xbdbfc2ab	-0.09363302
238	0xbca67872	-0.020321105
239	0xbd3caed5	-0.04606517
240	0xbcc0fc2c	-0.023557745
241	0xbd3e18b6	-0.046410285
242	0xbc68a244	-0.014198843
243	0xbd73730d	-0.059435893
244	0xbd731dd8	-0.059354633
245	0xbc4f8baa	-0.012667576
246	0xbdc029a1	-0.0938294
247	0xbd2abb96	-0.041682802
248	0xbdd8dea3	-0.105893396
249	0xbd248629	-0.040167008
250	0xbd5af192	-0.053453036
251	0x3d5d88ac	0.05408542
252	0x3d557144	0.05210997
253	0xba8d095f	-0.0010760239
254	0x3d1aab30	0.037760913
255	0xbcae4f5f	-0.021278081

fc1.bias f4 [120]
0	0x3e20b01d	0.15692182
1	0x3c8bb980	0.017056227
2	0xbd931d1f	-0.07183289
3	0x3d9c63e5	0.07636241
4	0x3c851ddf	0.016249595
5	0x3d8f3b5e	0.06993745
6	0x3c43930a	0.011936912
7	0x3de44e9a	0.111478046
8	0x3c9d6714	0.01921419
9	0xbd39548b	-0.045246642
10	0xbdfd5c87	-0.12371164
11	0x3e04158c	0.12898844
12	0x3c395295	0.011311193
13	0xbdf4b736	-0.11949007
14	0xbd6495be	-0.055806868
15	0xbbaf7d8f	-0.005355544
16	0x3da64da8	0.081202805
17	0x3d212505	0.039341945
18	0x3c5a659b	0.013329889
19	0xbd8bea0d	-0.06831751
20	0x3ab5919d	0.00138526
21	0x3d8dee64	0.06930235
22	0xbd882d23	-0.06649234
23	0xbd1858dc	-0.037194118
24	0x3c9612a9	0.018319445
25	0xbd44905e	-0.04798924
26	0x3e9618c3	0.29315767
27	0x3e1e943b	0.15486233
28	0x3e49a111	0.19690348
29	0x3c119dba	0.008887703
30	0xbd2e0a0c	-0.04249005
31	0xbe18aaad	-0.14908858
32	0x3d259aa7	0.04043069
33	0xbd67b36f	-0.056567606
34	0xbe07f411	-0.13276698
35	0xbcceb105	-0.025230894
36	0xbd74a350	-0.05972606
37	0x3b14d585	0.0022710275
38	0xbe0a8a9a	-0.13529435
39	0x3d071304	0.03297712
40	0x3e0a51f0	0.13507819
41	0x3e88f791	0.26751378
42	0xbdb2b99b	-0.08726808
43	0x3ddd5a92	0.108082905
44	0x3da83df5	0.08214942
45	0x3deb540c	0.1149064
46	0x3d44a062	0.048004515
47	0x3c27062e	0.010194344
48	0x3ce65a9f	0.028119383
49	0x3dd682e6	0.10474186
50	0xbd6bd97d	-0.05758046
51	0xbb95c7c5	-0.0045709335
52	0x3c9205ac	0.01782497
53	0xbc3f9f3e	-0.011695681
54	0xbd7fb4ef	-0.06242841
55	0xbdf65f91	-0.120299466
56	0xbcd06a6f	-0.025441376
57	0x3e2f0091	0.1709006
58	0xbc3756e0	-0.011190146
59	0xbd84f71a	-0.064924434
60	0xbdc9fc4e	-0.098625764
61	0x3e0f51e7	0.13996087
62	0x3d0f73b1	0.03502244
63	0xbccd4691	-0.025058063
64	0x3e56b0ce	0.20965883
65	0xbdb82acd	-0.089925386
66	0x3d7dd835	0.06197377
67	0x3b2db5ff	0.0026506183
68	0x3de9df3c	0.11419532
69	0x3d1bedfb	0.038068753
70	0x3e00e0f7	0.12585817
71	0x3e18c758	0.14919794
72	0xbd5a9f45	-0.053374548
73	0x3da55fcd	0.08074913
74	0xbd237a26	-0.03991141
75	0xbd647ad5	-0.055781204
76	0xbe3fb087	-0.18719684
77	0x3d52fe21	0.051511887
78	0xbd70a60f	-0.058752116
79	0x3d972c37	0.0738148
80	0xbd994f3d	-0.07485817
81	0xbc6795d9	-0.014134848
82	0x3c1e1c56	0.0096503105
83	0x3d86f89d	0.06590388
84	0xbe5d00e8	-0.21582377
85	0x3e9c83c7	0.30569288
86	0x3c90bc0b	0.01766779
87	0x3d5137df	0.051078673
88	0x3dcce5ec	0.100047916
89	0x3bb434a0	0.0054994375
90	0x3e2ab0a0	0.1666894
91	0x3d6537ec	0.055961534
92	0xbd1543cc	-0.03644161
93	0xbddfae1e	-0.10921882
94	0xbd74ab3e	-0.05973362
95	0x3dece1f9	0.11566538
96	0xbcc5444f	-0.024080424
97	0x3db77b0c	0.08959016
98	0x3e0692e8	0.13141978
99	0x3e90cb30	0.2828002
100	0x39cd835c	0.00039198517
101	0xbc9f3d81	-0.019438507
102	0x3dac6a14	0.0841867
103	0xbd66678a	-0.056251086
104	0x3e6dac26	0.232102
105	0xbc55dfe7	-0.013053871
106	0xbcb01a00	-0.021496773
107	0x3e154029	0.14575256
108	0xbc3c4fb8	-0.011493616
109	0xbc9960d4	-0.018722929
110	0xbcb5f169	-0.02220984
111	0xbc61a8be	-0.013773141
112	0x3e77792b	0.24167316
113	0xbc411dd2	-0.011786895
114	0xbe0688d2	-0.1313813
115	0x3e7ead7f	0.24870871
116	0xbe35009f	-0.17676018
117	0x3dc3fb2e	0.09569393
118	0x3df3f1ae	0.11911331
119	0xbdc9202b	-0.09820589

fc2.weight f4 [84, 120]
0	0x3c842391	0.01613024
1	0x3da7695d	0.08174393
2	0xbd7d93ed	-0.06190865
3	0xbcd8f2b1	-0.026482912
4	0xbb40f224	-0.0029441202
5	0x3df19322	0.117956415
6	0xbc929af0	-0.017896146
7	0x3cf69cad	0.030104006
8	0xbda15102	-0.07876779
9	0x3baf6fcf	0.005353905
10	0xbccb216e	-0.024796214
11	0x3ca80fc1	0.020515325
12	0xbdd6e359	-0.10492582
13	0xbc51ba6b	-0.012800793
14	0x3e3dfe25	0.1855398
15	0x3da4dce2	0.080499426
16	0xbe1375a7	-0.1440035
17	0x3d9bcaef	0.07607066
18	0xbd5e44af	-0.05426472
19	0x3bb84628	0.0056235977
20	0x3c6b63f6	0.014367094
21	0xbdccaf96	-0.09994428
22	0x3d27b47d	0.04094361
23	0xbdd19f03	-0.10235407
24	0xbdbaf315	-0.091283955
25	0xbd8b7bda	-0.06810732
26	0x3d727187	0.0591903
27	0xbd81d6a8	-0.063397706
28	0x3d01c262	0.03167952
29	0xbd8e3951	-0.06944526
30	0xbdead6dc	-0.114667624
31	0xbd884d4d	-0.06655369
32	0x3cf1d63a	0.029521096
33	0xbd6e1d60	-0.058133483
34	0xbcf6f488	-0.030145898
35	0xbd1e36ae	-0.038626365
36	0xbd08e1c8	-0.033418447
37	0xbdd7c31f	-0.10535263
38	0xbc95d129	-0.018288212
39	0x3dbacf7e	0.09121607
40	0x3e13cf55	0.1443456
41	0xbd030a66	-0.03199234
42	0xbe00d1ca	-0.12580028
43	0x3d821a03	0.063526176
44	0x3e1fd48b	0.15608422
45	0xbd300c17	-0.04298028
46	0xbdc3e88e	-0.09565841
47	0x3d8603b6	0.065436766
48	0x3d373a39	0.04473326
49	0x3d3bdf78	0.045867413
50	0xbcf395e8	-0.029734567
51	0xbe38a022	-0.18029836
52	0x3db5c752	0.08875908
53	0x3bca45d1	0.0061728735
54	0x3cfb2f8d	0.030662322
55	0xbbfce4ae	-0.0077176904
56	0x3ded9ccd	0.11602173
57	0x3d87c36a	0.06629069
58	0xbdc7c87a	-0.09755035
59	0x3db15ca5	0.08660249
60	0xbde519df	-0.11186575
61	0x3d54ba8c	0.051935717
62	0xbdd5b6cf	-0.104352586
63	0x3d09817a	0.033570744
64	0x3cace2bd	0.021104211
65	0xbdfcce54	-0.123440415
66	0x3dce0907	0.100603156
67	0x3bb3a1d3	0.0054819374
68	0xbd33053b	-0.04370616
69	0xbd727cdd	-0.05920111
70	0xbdffd9c9	-0.12492711
71	0xbcb9082b	-0.022586903
72	0xbccd0220	-0.025025427
73	0x3e1a8622	0.1509023
74	0x3cc717c4	0.024303325
75	0xbd8cee17	-0.068813495
76	0x3cdc1143	0.0268637
77	0x3cbfb2d5	0.023400703
78	0x3dc78135	0.09741441
79	0xbc12a75c	-0.008951034
80	0x3d6698d4	0.056298092
81	0x3cc997fb	0.024608603
82	0x3d470438	0.048588008
83	0x3cdf64d0	0.02726975
84	0x3dcedf21	0.10101152
85	0x3dbfb879	0.09361357
86	0xbdc55e6b	-0.096371494
87	0xbd80db97	-0.062918834
88	0x3ceaf8aa	0.028683025
89	0x3e5983c7	0.21241675
90	0xbe21374a	-0.15743747
91	0x3d6939af	0.056939777
92	0xbe0713dd	-0.13191171
93	0x3d6637b0	0.05620545
94	0xbc815a6c	-0.015790187
95	0x3d05f361	0.032702807
96	0xbd82ea0e	-0.06392299
97	0xbd945303	-0.07242396
98	0xbd77a991	-0.060464446
99	0x3e21bb6f	0.15794156
100	0xbd8b334d	-0.06796894
101	0xbda4dc41	-0.080498226
102	0x3da974fc	0.08274266
103	0x3b680384	0.0035402486
104	0xbd493d4c	-0.049130723
105	0xbc7ebd3c	-0.015548047
106	0xbe6c1293	-0.2305396
107	0xbc3e1868	-0.011602499
108	0xbd8b6ea9	-0.06808216
109	0xbd62e813	-0.055397104
110	0xbd69c065	-0.057068247
111	0xbd992157	-0.07477062
112	0xbdc989b2	-0.098407164
113	0xbcad6c2f	-0.02116975
114	0x3e15128c	0.14557856
115	0xbd39c03a	-0.045349337
116	0xbcbb6e97	-0.022879882
117	0x3e39f071	0.18158127
118	0xbccf9ae8	-0.02534242
119	0xbd4deaf4	-0.050272897
120	0x3df84542	0.12122585
121	0xbcb046ce	-0.021518137
122	0x3c8d0b59	0.017217325
123	0xbdf73899	-0.12071342
124	0x3c64187f	0.013921856
125	0xbe0dbbe6	-0.13841209
126	0x3d814bef	0.06313311
127	0x3d1f7176	0.038926564
128	0x3c3c54da	0.01149484
129	0xbe049029	-0.12945618
130	0xba3638f4	-0.00069512357
131	0xbd6f06e1	-0.05835617
132	0x3a6d617d	0.00090553594
133	0xbd8bfd23	-0.06835391
134	0xbe100ddd	-0.14067788
135	0xbce597dd	-0.028026516
136	0xbd116119	-0.03549299
137	0xbd95fd7b	-0.07323738
138	0x3c4bb418	0.012433074
139	0x3d5f8c5f	0.054577228
140	0xbd8fe091	-0.070252545
141	0x3c3dfacc	0.011595439
142	0xbd0a7592	-0.03380353
143	0x3db3eb9e	0.08785175
144	0xbdc591d5	-0.09646956
145	0x3aa8ea48	0.0012887204
146	0xbd642f18	-0.055708975
147	0xbd43ecc2	-0.04783321
148	0x3c144582	0.009049775
149	0xbcd669c8	-0.026173487
150	0x3da42799	0.08015365
151	0x3c4b99e9	0.012426832
152	0x3caf2ed2	0.02138463
153	0xbde3fe89	-0.11132533
154	0x3e2e3311	0.17011668
155	0xbd016299	-0.03158817
156	0xbe03d83a	-0.12875453
157	0xbceb2929	-0.02870615
158	0x3d9574a3	0.07297637
159	0xbddc6fbe	-0.10763501
160	0xbd13c2eb	-0.03607456
161	0x3d8e6689	0.06953151
162	0x3db07098	0.086152256
163	0xbd948cab	-0.07253393
164	0xbe07cfdb	-0.13262884
165	0xbdc583c7	-0.09644275
166	0xbd329487	-0.043598678
167	0xbd20b574	-0.039235547
168	0xbd11877c	-0.0355296
169	0xbd17d815	-0.037071306
170	0x3d02f80e	0.031974845
171	0x3e0a8ff7	0.1353148
172	0x3c749c11	0.014929787
173	0xbdb7a3d2	-0.08966793
174	0xbe1d923e	-0.15387818
175	0x3d90bc2c	0.07067141
176	0xbd8c95e8	-0.0686453
177	0xbdaab634	-0.08335534
178	0x3c9ba316	0.018998664
179	0xbc867584	-0.016413458
180	0x3d3ff5df	0.04686534
181	0x3d6cb669	0.057791147
182	0x3d6a9780	0.057273388
183	0x3c4a32a8	0.012341179
184	0xbb9535e7	-0.004553545
185	0x3bfdcdcb	0.0077454797
186	0xbdfeaaad	-0.124348976
187	0x3dfd07b2	0.123549834
188	0xbd801a94	-0.062550694
189	0x3d65cf09	0.056105647
190	0x3d2c0b36	0.04200288
191	0x3c4d350e	0.012524856
192	0x3d42c72e	0.047553234
193	0xbd55a0db	-0.052155357
194	0x3de51f84	0.11187652
195	0x3dba081b	0.09083577
196	0xbd9046e7	-0.070447735
197	0x3d9a7e3c	0.075436085
198	0xbcff224d	-0.031144286
199	0xbd9b1847	-0.0757299
200	0xbd75f479	-0.0600476
201	0x3dee0576	0.11622135
202	0x3c71c511	0.014756457
203	0xbdbf8117	-0.09350794
204	0xbb8d6bb0	-0.004315816
205	0x3c9cc1de	0.019135412
206	0x3d59b5dc	0.05315195
207	0xbd93647a	-0.07196899
208	0xbd94c309	-0.072637625
209	0xbe0284ec	-0.12746018
210	0x3d8b97f6	0.068160936
211	0xbca01f88	-0.019546285
212	0xbdb7b60a	-0.08970268
213	0x3c1bb146	0.0095027145
214	0x3c9368b6	0.017994266
215	0xbd37f13f	-0.044907805
216	0xbccd346b	-0.025049409
217	0xbd0ee484	-0.0348859
218	0x3dec4bb6	0.11537878
219	0xbd82af55	-0.06381098
220	0xbd29e4b1	-0.041477863
221	0x3c864f52	0.016395245
222	0x3d4bab2c	0.04972379
223	0xbbd599ab	-0.006518563
224	0x3df48532	0.119394675
225	0x3dd33213	0.10312285
226	0x3da6de9c	0.08147928
227	0x3dc8e371	0.09809006
228	0xbd026d55	-0.03184255
229	0x3da27bae	0.07933746
230	0x3d3dd977	0.04634997
231	0x3d2834c2	0.04106594
232	0x3c0aca97	0.008471153
233	0xbd8721b4	-0.06598225
234	0xbcb139d6	-0.021634024
235	0xbe0321a3	-0.128058
236	0x3dd1e331	0.102484114
237	0xbd9c9766	-0.076460645
238	0xbd5b1e81	-0.053495888
239	0xbbd42256	-0.0064738197
240	0xbd14ee86	-0.036360286
241	0xbdfac687	-0.12244897
242	0x3b8a1494	0.004213879
243	0xbe1dd26c	-0.15412301
244	0x3deeae94	0.11654392
245	0x3d49bd02	0.049252518
246	0x3a3046ca	0.00067244156
247	0x3db14197	0.086550884
248	0xbd0e3d95	-0.034726698
249	0xbc893ce9	-0.016752677
250	0x3e246aa1	0.160563
251	0x3c8eae31	0.017417045
252	0xbd49cf0c	-0.04926972
253	0x3d017e55	0.03161462
254	0xbde7efda	-0.11325045
255	0xbcdd85cd	-0.02704134

fc2.bias f4 [84]
0	0x3e836e93	0.256703
1	0x3d3f0b02	0.046641357
2	0x3c6dbd9f	0.014510541
3	0xbd2be5ff	-0.04196739
4	0x3b229c0a	0.0024812245
5	0x3e364d3f	0.17802905
6	0xbc50903e	-0.0127297025
7	0xbcbf34f1	-0.023340674
8	0x3e839b2d	0.25704327
9	0x3d92b165	0.071627416
10	0x3df20497	0.11817282
11	0x3d65e0d5	0.05612262
12	0x3e4e360c	0.20137805
13	0x3d74d148	0.0597699
14	0xbdd71154	-0.10501352
15	0x3e3807cd	0.17971726
16	0x3ef07c60	0.4696989
17	0x3d03ce10	0.03217894
18	0x3dfde4d1	0.12397159
19	0x3e741736	0.2383698
20	0x3d808039	0.062744565
21	0x3e858056	0.26074475
22	0x3ea2464a	0.3169425
23	0x3e9894fb	0.29801163
24	0x3d9c16a1	0.076215036
25	0xbe2c1b05	-0.16807182
26	0xbd842b8a	-0.06453617
27	0x3e658755	0.22414906
28	0xbd2fc4d3	-0.042912316
29	0x3da5da30	0.080982566
30	0x3d247fee	0.040161066
31	0xbd379c35	-0.044826705
32	0xbd310e48	-0.04322651
33	0x3db58e51	0.08865035
34	0x3e71090a	0.23538604
35	0xbd89e4bf	-0.06733083
36	0x3d6bbde7	0.057554152
37	0x3c2181ec	0.009857636
38	0xbdbdad0b	-0.09261521
39	0x3eb0d9ee	0.34541267
40	0xbdc6a164	-0.096987516
41	0x3dc86d26	0.097864434
42	0x3d6750b7	0.05647346
43	0x3e3f9353	0.18708543
44	0x3edd2e98	0.4319961
45	0xbc4a40db	-0.012344564
46	0xbdba23e2	-0.09088875
47	0x3ed44471	0.41458467
48	0x3e3b7554	0.18306476
49	0xbd081559	-0.033223484
50	0x3e05fb31	0.13084103
51	0x3d68d984	0.056848064
52	0xbd26ad8e	-0.04069286
53	0x3eb76d1e	0.35825437
54	0x3f132ecf	0.574933
55	0x3d811874	0.06303492
56	0x3dbdaef7	0.092618875
57	0xbd81ed84	-0.06344131
58	0x3b445e60	0.0029963478
59	0x3e9d1cba	0.3068598
60	0x3e6f924d	0.23395653
61	0xbd8539e6	-0.06505184
62	0x3ed40a9c	0.41414344
63	0xbd205cdf	-0.03915107
64	0xbd80838a	-0.06275089
65	0xbdbeb08a	-0.09311016
66	0xbd9c1bb8	-0.076224744
67	0x3eb8b168	0.3607285
68	0x3e7dbc84	0.24778944
69	0xbdb5c81c	-0.088760585
70	0x3ba0634b	0.004894649
71	0xbd0dc219	-0.034608934
72	0x3e1460f4	0.1449011
73	0x3cb4e3ea	0.022081334
74	0xbd5ae023	-0.05343641
75	0x3ef132a9	0.47108963
76	0x3ea7b562	0.32755572
77	0x3bf0633b	0.007336048
78	0x3db665cb	0.08906134
79	0xbd46c094	-0.0485235
80	0x3d65b4bf	0.056080576
81	0x3e78c4be	0.24293801
82	0x3e22ebf1	0.15910317
83	0xbdb5ee1f	-0.088833086

fc3.weight f4 [10, 84]
0	0xbd2e1fd6	-0.04251083
1	0x3e1e1f89	0.15441717
2	0x3e4a5f22	0.19762853
3	0x3d55ae6c	0.052168295
4	0x3db0e0a1	0.086365946
5	0x3c6a3f58	0.014297329
6	0xbdc06b5c	-0.09395477
7	0x3da25336	0.079260275
8	0x3e1457cb	0.14486615
9	0x3d69716f	0.056992944
10	0xbe279437	-0.16365133
11	0x3e34e862	0.17666772
12	0xbe1f7253	-0.15570955
13	0xbcb5aeee	-0.02217814
14	0xbd0421c3	-0.03225876
15	0x3e1b3b49	0.15159334
16	0xbeb684b3	-0.35648116
17	0x3ea2ceb0	0.31798315
18	0x3e2d32d6	0.16913924
19	0xbd879ce2	-0.0662172
20	0x3e1f1389	0.15534796
21	0x3dc8f0ad	0.0981153
22	0x3dd6791f	0.10472321
23	0xbe2bc4d4	-0.16774303
24	0x3ea13f43	0.31493577
25	0x3dc8c2e9	0.09802801
26	0xbe14539c	-0.1448502
27	0xbe1baf1e	-0.1520352
28	0x3d4911bd	0.049089182
29	0xbe0fd544	-0.14046198
30	0xbcb2c277	-0.021821244
31	0x3df3fbc0	0.11913252
32	0x3d807e6d	0.06274114
33	0x3c1ba55f	0.009499877
34	0xbe8b3283	-0.27186975
35	0x3dce71c5	0.100802936
36	0x3df18bc1	0.11794234
37	0xbe1eae82	-0.15496257
38	0x3df3bd45	0.11901335
39	0x3e2f542a	0.1712195
40	0xbc9466c5	-0.01811541
41	0xbc39f2fc	-0.011349436
42	0xbdc1434b	-0.09436663
43	0xbde58074	-0.11206141
44	0xbe3410a0	-0.17584467
45	0xbd088d53	-0.033337902
46	0x3dc9c788	0.09852511
47	0xbd49a26d	-0.049227167
48	0x3da433e3	0.08017709
49	0xbdc6a77d	-0.096999146
50	0x3dc4f947	0.096178584
51	0xbd26b20c	-0.040697142
52	0xbd91bdfb	-0.07116314
53	0xbe8774d0	-0.26456308
54	0xbea6a123	-0.32544813
55	0x3d12cfd8	0.035842746
56	0x3e928c33	0.2862259
57	0xbbbdc38e	-0.005791134
58	0xbd87652a	-0.066110924
59	0x3e24f53f	0.16109179
60	0xbe1010a8	-0.14068854
61	0x3cb10854	0.021610416
62	0x3e5d260b	0.21596543
63	0x3e519085	0.20465286
64	0xbd400ffa	-0.046890236
65	0xbc76a054	-0.015052874
66	0x3df64e66	0.12026672
67	0x3e4a2cca	0.19743648
68	0xbc92f7ef	-0.01794049
69	0x3d65106c	0.055923864
70	0xbcea1943	-0.028576499
71	0xbe03946b	-0.12849586
72	0xbdf5e190	-0.12005913
73	0xbc6fe2a5	-0.014641439
74	0xbb8d92d1	-0.0043204804
75	0xbe10fcb4	-0.14158899
76	0xbe690ba1	-0.22758342
77	0x3e3d6ed2	0.18499306
78	0xbdcf1722	-0.10111834
79	0xbdaafd87	-0.08349138
80	0xbbebecb3	-0.0071998476
81	0x3b8d5fc2	0.0043143937
82	0x3e2048d5	0.15652783
83	0x3d90dffb	0.07073971
84	0x3df68469	0.12036974
85	0xbe063f63	-0.13110118
86	0xbe5f649d	-0.21815725
87	0xbdcda470	-0.100411296
88	0x3d881629	0.06644852
89	0xbd518688	-0.05115369
90	0x3a9561b5	0.0011396917
91	0x3da32a3d	0.07967041
92	0xbe78efcf	-0.2431023
93	0x3e85be2a	0.26121646
94	0xbddcbf39	-0.1077866
95	0x3e5f3973	0.21799259
96	0x3a70513f	0.000916738
97	0x3d96d514	0.0736486
98	0xbd5fac0a	-0.05460743
99	0xbe78f1fd	-0.24311061
100	0xbd9543fa	-0.07288356
101	0x3c0d9781	0.008642078
102	0x3ec1935c	0.3780774
103	0xbe5db598	-0.21651304
104	0xbd81f9f1	-0.06346501
105	0xbdeaa67f	-0.11457538
106	0x3d8b0a19	0.06789035
107	0xbe1d7ec8	-0.15380394
108	0x3d914d5c	0.07094833
109	0x3df35199	0.11880798
110	0xbd12fe13	-0.035886835
111	0xbcac49bc	-0.021031253
112	0xbde3b866	-0.111191556
113	0xbd4ad98b	-0.04952387
114	0x3e18d25a	0.14923993
115	0xbd9a11ab	-0.07522901
116	0x3dad7acb	0.084706865
117	0x3e20e636	0.15712819
118	0x3e26a696	0.16274485
119	0xbdf4b0e2	-0.119478
120	0x3e213a0f	0.15744804
121	0x3e70cb57	0.23515068
122	0x3d244e21	0.040113572
123	0xbea5d4c7	-0.323889
124	0x3bf8780a	0.007582669
125	0x3cf00e79	0.029303776
126	0xbc8fa8c5	-0.01753653
127	0xbe0a87c6	-0.13528356
128	0xbecf18df	-0.40448663
129	0x3e711954	0.23544818
130	0x3d8bcdaa	0.06826337
131	0xbb4fe3f3	-0.0031721562
132	0x3de841ed	0.11340699
133	0x3d9cb107	0.07650953
134	0x3cc2cd19	0.023779439
135	0xbd72c3b8	-0.059268683
136	0xbdfd2cdb	-0.12362071
137	0x3aae0cff	0.001327902
138	0xbe82829f	-0.2549028
139	0x3c6fdda1	0.014640243
140	0x3ec752f6	0.38930482
141	0x3db68777	0.089125566
142	0x3d813ef4	0.063108355
143	0x3ddba3c6	0.10724597
144	0xbd4bf4db	-0.04979406
145	0x3dccd643	0.10001805
146	0xbe7c4053	-0.24633913
147	0x3cf5a7ef	0.029987304
148	0xbdd32c62	-0.103112
149	0x3cfc41a7	0.030793024
150	0x3e5a8fda	0.21343938
151	0xbe678fc0	-0.2261343
152	0xbedebc90	-0.43503237
153	0xbe526c45	-0.20549114
154	0xbdcd6d10	-0.10030568
155	0x3edf0266	0.43556517
156	0x3c8428e9	0.016132789
157	0xbd178954	-0.0369962
158	0xbd88fcb6	-0.06688826
159	0xbe54c55e	-0.20778415
160	0xbe8a9375	-0.27065626
161	0xbce1d5d3	-0.02756778
162	0xbe017489	-0.12642111
163	0x3e0850bc	0.13312048
164	0x3e09d29b	0.13459246
165	0xbd407a9a	-0.046991922
166	0x3e018f6e	0.1265237
167	0xbd0d2469	-0.03445855
168	0x3dbdc8e2	0.09266831
169	0xbdc5d19e	-0.09659122
170	0xbd7275af	-0.059194263
171	0x3e0d6829	0.13809265
172	0x3d7f5e6a	0.0623459
173	0xbe6650cd	-0.2249176
174	0x3dac2e1e	0.08407234
175	0x3e3564fc	0.17714304
176	0x3e656fbd	0.22405906
177	0x3e226fb1	0.1586292
178	0x3cd53db2	0.026030395
179	0xbe0dc877	-0.13846003
180	0x3e371345	0.17878444
181	0xbcf5424b	-0.029938838
182	0xbcb1c748	-0.02170147
183	0xbb4943e8	-0.0030710641
184	0x3e20ae42	0.15691474
185	0x39e3ca41	0.00043447505
186	0x3ce6d270	0.028176516
187	0x3e0216b3	0.12703972
188	0x3e879582	0.26481253
189	0xbd93a454	-0.072090775
190	0x3e5d3293	0.21601324
191	0xbdc5bc59	-0.09655065
192	0x3e4a6308	0.1976434
193	0xbd9a45d8	-0.07532853
194	0xbbc4de83	-0.006007971
195	0x3e5a9de0	0.21349287
196	0x3e756bbe	0.23966882
197	0x3c2e082d	0.010622066
198	0xbdda6452	-0.10663666
199	0xbdbdda06	-0.092701
200	0x3bf0197e	0.0073272577
201	0xbdb0c682	-0.08631612
202	0x3dec4d5f	0.11538195
203	0x3dcce9e1	0.10005546
204	0x3d409210	0.047014296
205	0xbb347bf3	-0.00275397
206	0x3d5a2a5a	0.053263046
207	0x3e98343c	0.29727352
208	0xbca678ec	-0.020321332
209	0xbe0096bb	-0.12557499
210	0xbd985010	-0.07437146
211	0x3d989332	0.0744995
212	0xbaf45056	-0.0018639665
213	0x3bdda873	0.0067644655
214	0xbe3d7f85	-0.18505676
215	0xbd9be1f8	-0.076114595
216	0x3e2bc894	0.16775733
217	0xbe82e365	-0.25564113
218	0x3e0fcd49	0.14043154
219	0xbda0b1bd	-0.07846401
220	0x3e1d3811	0.15353419
221	0xbcb67c1d	-0.022275979
222	0x3e136ef6	0.14397797
223	0x3dda0581	0.10645581
224	0xbe4ed4af	-0.2019832
225	0xbdc4ecfb	-0.09615513
226	0x3da937e1	0.08262611
227	0xbe42ff5c	-0.19042724
228	0xbdcfe223	-0.10150554
229	0xbda2fd68	-0.0795849
230	0x3e681bf1	0.22666909
231	0x3d3edf4c	0.04659967
232	0xbda5dbee	-0.08098589
233	0x3d01f4ec	0.031727716
234	0xbe2cae55	-0.16863377
235	0xbca2b44a	-0.01986136
236	0x3e08670c	0.1332056
237	0x3e97ed5b	0.29673275
238	0x3d692622	0.056921132
239	0xbe5e364a	-0.21700397
240	0xbd8157b0	-0.06315553
241	0x3e2dd363	0.16975169
242	0x3e02196b	0.12705009
243	0x3e395101	0.18097307
244	0x3d5f8b9a	0.054576494
245	0xbd44cca3	-0.04804672
246	0x3d2cdfe7	0.042205717
247	0x3da4d816	0.080490276
248	0xbd484f6f	-0.04890388
249	0x3e9be6d9	0.3044956
250	0xbcbdf62b	-0.023188671
251	0xbd87e64e	-0.06635724
252	0xbe0d82ad	-0.1381938
253	0x3da2ff07	0.07958799
254	0xbd0d19d5	-0.034448463
255	0xbdefbc00	-0.1170578

fc3.bias f4 [10]
0	0xbe9d937d	-0.30776587
1	0xbf3c8931	-0.7364684
2	0xbdbab648	-0.09116799
3	0x3f01bfc3	0.5068323
4	0x3f016436	0.50543535
5	0xbd977033	-0.07394447
6	0x3df5d035	0.12002603
7	0xbee477f8	-0.4462278
8	0x3ee7923e	0.4522876
9	0xbe27c48f	-0.16383575
